Voice-wake-up/Param/encoder.pt (torch_old, 372007 bytes, 20 tensors)

conv.0.weight f4 [18, 1, 64]
00000000: b821 be3c 55b9 2bbd c58e 0b3e 31c3 b1bd
00000010: 0b10 07bd d489 033e 9a52 053e 38f9 ee3d
00000020: d17e 023c 5caf 863c 116c afbd 863d 97bd
00000030: 6a9a 893d 6529 683d 2a26 f93c 8869 763c
00000040: ad23 36bd a490 94bd afae 163d 8970 8c3d
00000050: 1aff f53d 7e25 f7bc 4949 63bd 21fe 603d
00000060: d99b d73d c95e 3a3d b09f eebb 22f9 2c3d
00000070: 78a5 f7bc dc42 8f3d 3b01 913d 4c4b 973c
00000080: adaa 3cbd 8fd6 af3c 6f48 03be 2092 9e3d
00000090: 1cc8 36bd beeb bd3c d4b6 273c 562a febd
000000a0: 5a19 b63d dfe2 183d c87c e43d 8181 f23c
000000b0: 7c5d 7d3d b54a b33d 6516 1dbb a0c1 c33c
000000c0: cf11 c63c 4211 bf3c 5a3f 4c3d d55a abbb
000000d0: a845 c1bd 9b52 513d 73a4 79bd 8622 2ebd
000000e0: af15 18bc 04c2 9b3d c53e f03d 729f 143e
000000f0: ad08 183e 3218 c9bd 3d95 b6bd 3826 f3bb
00000100: f77b 6fbd e678 323c 0015 e1bd a1ba 56bc
00000110: 3f48 a83c d60e d43d 9159 863d 5fa1 91bd
00000120: 01cb cc3d 4981 0ebd b331 8fbd a959 85bc
00000130: bb16 053c 29f4 44bd 6ef4 4f3d fea3 05bc
00000140: 8c36 023c c3f8 bebd d678 413d 8d13 b23d
00000150: 3613 ae3d db5e 04bd d59c 9fbd 21fb 25bd
00000160: 544e c73a ad22 ce3d d4da 21bd 4c37 10bb
00000170: 0069 d3bd 1804 263d e430 01bd f59f a3bd
00000180: 8f4e b5bd 7ca6 05be 4de3 f73d da57 22bd
00000190: 6f8a 9c3d d8ac dc3d 7240 dfbd fd34 a9bd
000001a0: 1907 0dbd 9e32 2fbd f8a2 d1bd 5721 ca3b
000001b0: 0735 973d 9418 353d f98b dcbd a7e5 9bbd
000001c0: f321 ea3c 1475 c13d 9e42 b53d 7534 c8bd
000001d0: e5b7 c7bd 3db2 a2bc ca2b dbbd 8997 42bd
000001e0: ee75 c63d 679e c13d 502d 7c3d d2e6 8f3c
000001f0: 049c b1bd 2608 f63d 8e12 ec3c 7e22 823d
00000200: 6826 41bd 73bd ca3d 9924 a9bd d55c 26bd
00000210: 4e10 d53c 2e90 963d 27cb 96bc 4bdf fa3c
00000220: 4f7a d3bd 4e34 e83d 6ec8 e73d 8b0e e83d
00000230: 8599 adbc 0668 8fbd c0eb 6d3a 029d 5c3d
00000240: 1dfc bc3d 40e7 273d f0d4 be3c 3422 c73d
00000250: 8b2a 2dbd c536 5abc 237f adbb 6426 de3d
00000260: eaee bfbd 902f 803c 9122 d7bd ba1c e0bd
00000270: 264e ffbd cd36 783d 8c51 c03d 6c85 09bd
00000280: 9e07 f0bd dba1 2e3d 5b71 cbbd 1cb4 cebd
00000290: 4cfe e63d 33fe fa3c d969 8a3c 1b97 e43d
000002a0: c3c3 45bd f049 f23d a89c 9a3c e665 003e
000002b0: ea3f ab3d 7456 5a3d b42f 243d e2e9 f23d
000002c0: 9ef9 ee3d 77ae 9e3d c3e9 bbbd aa6a aabd
000002d0: 6c45 dc3d 3c7b 3ebd 531e b03d b892 1ebd
000002e0: dd15 0f3d 191e 6cbd c18f b3bd dbe7 e8bc
000002f0: 9b6a 19bd d161 a2bd 6b0e f8bd 0d6a 9cbd
00000300: 3db4 20bd 8581 c3bd 095a 963d 4948 cb3d
00000310: bdc3 7fbc 31bc 873d aba1 a13c 6491 90bd
00000320: d8f7 ab3d 4652 0e3d 2f70 3cbd 6df5 cc3d
00000330: bd4c 673d 81f3 b23d 54ea 343d 1810 a5bd
00000340: e3e4 e13d 48ae a13d f886 a13c a178 823d
00000350: f5a6 403d 9805 c5bd 8f56 f9bd 5c54 723d
00000360: a3ab 8b3c 3f76 c4bd 5dda 54bc bb96 933d
00000370: df0e 28bd d6c5 73bd fc01 f83c 5f02 6cbd
00000380: aa73 053e a20f 013e 015f 103d c70c 773d
00000390: 02d1 85bd 88cf d6bc b5cf 20bd 3eaa 1a3d
000003a0: 1190 58bd c9bf 1f3d 2823 f43d b340 553d
000003b0: fb5c 733d f66a c83c ca75 a2bd 38f3 e23d
000003c0: aa1f bc3c fedc ab3d dfef c43d 222e 9d3b
000003d0: aa61 b0bc 3e67 483d d34e 813d 85f3 5b3d
000003e0: 99a6 7dbd 31f9 f9bd 1d93 bd3d 3817 6bbd
000003f0: 4ee0 633c 600e 283d c57e a9bc fadc 7f3d
0.023209438 -0.041924793 0.13628681 -0.08679808 -0.032974284 0.12845546 0.13019791 0.116686285
0.007964806 0.01644104 -0.08565534 -0.073847815 0.06718905 0.056680102 0.030413706 0.015039809
-0.044467617 -0.072541505 0.036787685 0.06857402 0.120115474 -0.030169245 -0.055489812 0.054929856
0.105277725 0.04550055 -0.00728222 0.04222978 -0.030230269 0.06995174 0.07080313 0.018468522
-0.046061207 0.021464614 -0.128206 0.07742715 -0.044624433 0.0231837 0.010236461 -0.12410419
0.08891554 0.037325736 0.11156613 0.029602768 0.06185673 0.087544836 -0.0023969647 0.023896039
0.024178414 0.023323659 0.049865104 -0.005229334 -0.09437114 0.05110417 -0.060947847 -0.042513393
-0.0092825135 0.07605365 0.11730722 0.14513949 0.1484706 -0.09819068 -0.08915184 -0.0074203275
-0.05846783 0.010893082 -0.109903336 -0.013106019 0.020542262 0.10354392 0.06560052 -0.07110857
0.099996574 -0.034791265 -0.06991901 -0.016278105 0.008123095 -0.04808441 0.050770216 -0.008156775
0.007947575 -0.09324791 0.04723438 0.08695135 0.08499758 -0.032317024 -0.07793585 -0.0405227
0.0015205839 0.10065208 -0.03951533 -0.0022005616 -0.103227615 0.040531248 -0.031540766 -0.07989494
-0.088528745 -0.1305179 0.12103901 -0.039634563 0.076435916 0.10775155 -0.10900964 -0.0826206
-0.034430597 -0.04277288 -0.10236162 0.006168525 0.07383161 0.044212893 -0.10768885 -0.07612162
0.028580641 0.09446159 0.08850597 -0.097756304 -0.09751872 -0.019860381 -0.107017115 -0.047507796
0.09690462 0.09454041 0.06156665 0.017566118 -0.08672336 0.12013273 0.028817441 0.06354235
-0.047155768 0.09899416 -0.082589336 -0.040615875 0.026008751 0.07351719 -0.018407417 0.030624053
-0.10326063 0.11338101 0.11317526 0.11330899 -0.021191368 -0.07002263 0.0009075962 0.05386067
0.09227774 0.04099202 0.023294896 0.097233206 -0.0422769 -0.013318722 -0.005294697 0.10847166
-0.09371741 0.01564768 -0.1050464 -0.10942979 -0.124660775 0.060599137 0.09390554 -0.033574507
-0.11720203 0.042634826 -0.0993373 -0.10092947 0.11278972 0.03063879 0.016896175 0.111616336
-0.048282396 0.11830509 0.018873528 0.12538871 0.083618 0.053305104 0.040084556 0.11861016
0.116687045 0.0774812 -0.09175446 -0.08321126 0.10755429 -0.046504244 0.08599534 -0.03871414
0.03493296 -0.05764589 -0.08767653 -0.02843087 -0.037455183 -0.07928813 -0.12112125 -0.07637415
-0.03923439 -0.09546188 0.073413916 0.09925897 -0.0156106325 0.066276915 0.01973041 -0.07058981
0.08396882 0.03474643 -0.046005424 0.10007749 0.056469668 0.08737851 0.044168785 -0.0805971
0.11029985 0.0789457 0.019717678 0.063706644 0.047034223 -0.096202075 -0.12174713 0.059162483
0.017049616 -0.09592866 -0.012991515 0.07206484 -0.041029807 -0.059514843 0.030274384 -0.05761945
0.13032404 0.1260362 0.035246853 0.06031492 -0.06534006 -0.026222005 -0.039260585 0.03776001
-0.052871767 0.03900126 0.11920768 0.052063655 0.059414845 0.024465065 -0.07932623 0.110815465
0.022964317 0.0839176 0.09616064 0.004796759 -0.021530945 0.048926584 0.06313863 0.053699035
-0.061926458 -0.122057326 0.09256575 -0.05739519 0.013908459 0.041029334 -0.020690331 0.0624666

conv.0.bias f4 [18]
00000000: 315a 9abc f26d 873d 9a9c 2a3d 3143 79bd
00000010: 0f93 8c3d d9c5 1d3b 7cad c03d ad05 9ebd
00000020: 0d9f ac3d 4140 613d 37d3 aabd 9423 d23d
00000030: a3e2 b83c 0746 8f3d 412a 3fbd 754d bfbc
00000040: eaed cd3d acce 3cbd
-0.018841835 0.06612767 0.041653253 -0.060855094 0.06863987 0.0024074225 0.094080895 -0.07715926
0.08428774 0.054992918 -0.08341067 0.10260692 0.022569006 0.069957785 -0.046671156 -0.023352364
0.10055144 -0.046095535

conv.2.weight f4 [36, 18, 32]
00000000: f99c 6c3c ba3e c13c 1fce d3bb 2197 78bb
00000010: 2d73 fa3b bbfa 673c f7af 083c aae7 933b
00000020: fe86 823c 6ac4 54bc eacd 233d 8d73 a53c
00000030: 8979 febc d7bd 993c 493d ddbc 3c5f b2bb
00000040: bcce 9cbb 1236 573d 4da9 c4bc bc40 e6bc
00000050: d275 55bd a6af a53c ad85 cb3c d427 40bc
00000060: 947d 8e3a adbd 3e3d 4ff8 6a3c f7d5 67bc
00000070: dcb3 cdbc b666 f2bc e48e 27bc d003 343d
00000080: 7b6d eebb 07e3 64bc 4b82 86bc 8e8f 27bc
00000090: 7cb1 3bbd 586f 803d 67d6 343c 72d2 2b3c
000000a0: 7b67 413d 4765 e83c a35f 0cbd 9d2c 283d
000000b0: c32e 463c 2a04 47bd feb3 4fbb 7777 6aba
000000c0: 5f91 d5bc 8204 7b3c 0387 e53c 4bad d739
000000d0: 0923 6bbc efec 2a3b fd08 3fbd 10a6 043d
000000e0: 50fe 03bd c599 14bd 2fb9 1abd de2b 873b
000000f0: dce9 86bc 37bc e03b 52ad 923c 8a79 883c
00000100: 82d1 8fbc 525a edbc a5d1 d5bc db61 babb
00000110: 1dcc 8abc 697e 17bd 0bda 6ebb 72c2 c2bc
00000120: 8553 393b 6f2e 38bd c4c0 953c 0d61 203c
00000130: dc4c e3bc 4baf 183d f6e2 a9bc 740b 973c
00000140: 679b 683d 4d09 18bb 6fac 093c 69a3 1e3c
00000150: 5f74 78bc 52a5 aa3b a2c8 563c bbc3 e5bc
00000160: 4320 02bd 7c49 293d bd58 193d d1c3 38bd
00000170: 9de1 0fbd 8d39 393a 301f bdbc fd7d 9e3a
00000180: ff56 913c 0edf 95bc 2008 d43c 4531 5d3c
00000190: 808a f7bc 001e 123d 18dd c2bc 1583 803c
000001a0: 1381 0abd d0a2 733b 23cd 073d 6e1b a13c
000001b0: 9c07 993c f1de 693b e952 19bd 992b 283d
000001c0: a8ef 5ebb 9382 2f3d afab 383c 83cc 16bd
000001d0: 67b3 31bd ca1b e9bc cb4b 443c b570 e7bc
000001e0: 7a7f a83c 3803 dfbc 5ced 3ebd 805d 573c
000001f0: 8ee7 813c b17b 393c 2bec 0e3d a43d 3a3d
00000200: 1ac2 30bd b903 1eba a979 353c 36fb 10bb
00000210: 2512 21bd 00f0 16bd 92bf c3bc f54f 8c3c
00000220: 3ecf 88bb 519a 5d3c d61b 63bd 94a9 29bd
00000230: 3301 843d ad1f 80bc eba1 48bb ee27 f1bc
00000240: 21df 36bd fa19 d1bb 94fd a53c 2b90 b23c
00000250: b235 76bc 6c58 68bb a975 71bc ba2d b7bc
00000260: 7e6e 63bd 36cf e4bb 9d76 433d b213 4dbc
00000270: d15c e4bc 1905 8fbb 5439 4cbd f937 6c3c
00000280: beab 843c 9b34 b83c bcbb e3bb cc97 4a3d
00000290: 4633 023d 6b78 073d c95f d2ba 7e5e 713c
000002a0: 93ce 813d 41ba 133d 526f e53c 7d28 233d
000002b0: eca4 50bc 3c45 2b3d b183 1dbd 4a65 edbc
000002c0: 9e27 7b3d bb92 123c c789 15bc 6209 2b3d
000002d0: 9d2e be3c bc0c d43c c946 3bbc f704 efbb
000002e0: 0ee5 eabc bdc7 66bb e00f ad3c f220 b7bc
000002f0: a6c6 183d e40e 3e3c 2958 063d a08c 2c3d
00000300: 8142 a9ba 94b9 95bc 3910 353d 5992 81bd
00000310: 8056 5e3d cc33 e23a 831f e0bb 60f9 35bc
00000320: 283b 81bd 2441 bbbc 72a0 ddbb f53c 733b
00000330: f08c 05bd e76d 4b3a 14f7 b23c efc7 633d
00000340: efbf f13c ed7c 5cbd fc3b 983a 544b 963b
00000350: 477b 8f3c f752 0b3b 0d73 bfba 3b72 69bc
00000360: dc15 d03c 5314 9fbc a75f 68bd 32b1 1bbd
00000370: 58ec 993c 1f61 2b3d fbf6 a8b9 9321 cb3c
00000380: 8e63 24bb 0fa1 893c ef43 b83b 6aa6 fabc
00000390: 526b 133c 9087 ccbc 6ac0 923c 528f 65bd
000003a0: 0678 cebc 73de 0d3d d017 603b abc2 863c
000003b0: 802d 90bb 5d70 84bd 39a4 aabc 78f1 44bc
000003c0: 7d3d 453c 0f35 fcbb 2780 da3c 443b 3bbd
000003d0: 7e8e bebb 6ba7 0b3d 7c6d 00bd be65 47bc
000003e0: 0078 26bb 8c8a dbbc 78c7 7bbc 2dc9 d03c
000003f0: 9fea 8d3c fdde d8bc 9cdf 2ebb e8f0 45bd
0.014441722 0.02358948 -0.0064637805 -0.0037931877 0.0076431246 0.0141589 0.008342735 0.0045137005
0.01593351 -0.012986282 0.039991297 0.0201967 -0.031063812 0.01876728 -0.027006762 -0.0054434817
-0.004785387 0.0525418 -0.02400651 -0.02810704 -0.052114315 0.020225357 0.024844015 -0.011728246
0.0010871165 0.046567608 0.014341428 -0.014150134 -0.025110178 -0.029589992 -0.010226939 0.04394895
-0.0072762347 -0.013970143 -0.01641955 -0.010227097 -0.04582356 0.06271237 0.011037446 0.010487186
0.047217827 0.028368605 -0.034270894 0.04105817 0.01209611 -0.048587956 -0.0031692977 -0.0008944193
-0.026070295 0.015320899 0.02801848 0.0004113711 -0.014351615 0.0026081165 -0.04663943 0.032384932
-0.032224953 -0.03627946 -0.03777426 0.0041251024 -0.016468935 0.0068583745 0.017904911 0.016659517
-0.017555956 -0.028973732 -0.026100943 -0.005687935 -0.016943032 -0.03698579 -0.0036445882 -0.02377436
0.0028278541 -0.044966158 0.018280394 0.009788764 -0.02774661 0.037276547 -0.020738106 0.018438078
0.05678883 -0.0023198903 0.008402928 0.009682515 -0.015164464 0.005207696 0.013109358 -0.028047433
-0.03176905 0.041329846 0.037438143 -0.04510862 -0.03512727 0.00070657657 -0.02308616 0.0012091991
0.017741678 -0.018294837 0.02588278 0.013500516 -0.03021741 0.03567314 -0.023787066 0.015687505
-0.0338145 0.0037175901 0.033154618 0.0196664 0.018680386 0.0035685862 -0.037432585 0.041057203
-0.0034017358 0.042849135 0.011271401 -0.03681613 -0.043383982 -0.028455634 0.011980961 -0.028251985
0.020568598 -0.027223215 -0.046613082 0.013144851 0.015857484 0.011320994 0.034893196 0.04546894
-0.04315386 -0.00060277764 0.011076369 -0.002212239 -0.039323945 -0.036849976 -0.023895059 0.01712797
-0.004175096 0.013525561 -0.05544647 -0.041421488 0.06445541 -0.015640104 -0.0030614089 -0.029437985
-0.044646386 -0.0063812705 0.020262517 0.02179726 -0.01502745 -0.0035453094 -0.014737525 -0.022360671
-0.055525295 -0.0069827093 0.04772054 -0.012516903 -0.02787629 -0.0043646214 -0.04985936 0.014417642
0.016195174 0.022486022 -0.00694987 0.04946117 0.03178718 0.033073824 -0.0016050275 0.014732001
0.06338229 0.036066297 0.028007183 0.039833535 -0.012734633 0.041814074 -0.03845567 -0.028978962
0.06131708 0.008946116 -0.009127087 0.041756995 0.023215586 0.025884978 -0.011430451 -0.007294293
-0.028673675 -0.0035214268 0.021125734 -0.022354577 0.03729882 0.01160023 0.03279892 0.042126298
-0.0012913496 -0.018276967 0.044204924 -0.06326742 0.05428171 0.0017257868 -0.006839694 -0.011106819
-0.06310111 -0.02285821 -0.0067635113 0.003711519 -0.03260511 0.0007760212 0.021846332 0.055610593
0.029510466 -0.053830076 0.0011614556 0.0045866165 0.017514838 0.0021259168 -0.0014606431 -0.014248426
0.025401048 -0.019418871 -0.056731846 -0.038010783 0.018789455 0.04184067 -0.00032227472 0.024796283
-0.0025083753 0.016800432 0.0056233327 -0.03059693 0.008997755 -0.024966985 0.017914016 -0.056044884
-0.025203716 0.034635972 0.003419388 0.016450247 -0.0043999553 -0.06466744 -0.02083026 -0.012020461
0.012038586 -0.0076967548 0.026672436 -0.045710817 -0.0058153262 0.03409521 -0.031354412 -0.012170253
-0.0025401115 -0.026799463 -0.015367381 0.025486553 0.01732379 -0.026473517 -0.0026683575 -0.04832545

conv.2.bias f4 [36]
00000000: 1cf6 f93c 7862 16bd 60e6 bb3c b8e1 9bbc
00000010: a406 c03a 9136 e1bb 8a75 eabc 7667 d9bb
00000020: a016 603c a3d0 ceba f476 c0ba 4d3c b6bb
00000030: 7695 cd3b 1406 113b e16c 013d 3e85 1dbd
00000040: 100d 773c 798f f23c 93e2 763c e0e2 debc
00000050: 9b4c 1abb 7bdb e13c e1f3 693c a38a a8bc
00000060: 32a3 a13c 9b8a afbb f648 723c 1f4c 55bc
00000070: 343a a43c 2761 9c3c bc01 2e3c bfe3 85bc
00000080: 3d2c 20bd bd89 07bd 9638 e2bc 879b 583c
0.030512862 -0.036715 0.022937 -0.01902853 0.0014650417 -0.00687296 -0.0286205 -0.006634648
0.013677269 -0.0015778731 -0.0014683888 -0.0055613876 0.0062739206 0.0022128867 0.031597976 -0.038457148
0.015078798 0.029609429 0.015068668 -0.027207792 -0.0023544196 0.027570477 0.014279337 -0.02057392
0.019731138 -0.005357099 0.014787903 -0.013018637 0.020047285 0.019089295 0.010620531 -0.01634395
-0.03910469 -0.03309034 -0.027614873 0.013220674

conv.3.weight f4 [36]
00000000: 7c9d 2a3f 2e26 603f 4366 463f 7478 ef3d
00000010: 3ea2 3f3d f0d1 6d3f 3009 563f ac7c 443f
00000020: 0c61 4d3e 1af1 0f3f 9916 fa3d 4968 453f
00000030: 8299 333e 29e4 a83d 876a 483f 950d 193f
00000040: b654 143f 2ffb 343f e361 6c3f 1deb 373f
00000050: 2d40 043f 9e8d 743f b3ea 0f3f ff74 f83e
00000060: 431f 9c3e d868 d43d 4a2f 9c3e df3a 263f
00000070: dc67 1e3f f501 983e abf7 243f e038 723f
00000080: 33d9 383d 04fe 723f dcc3 123f dbd9 ee3e
0.6664655 0.8755826 0.7749979 0.116928965 0.046785586 0.92898464 0.8360777 0.76752734
0.20056552 0.56227267 0.122113414 0.7711225 0.17539027 0.08246643 0.7828755 0.5978635
0.5794176 0.70695776 0.92336863 0.7184313 0.51660424 0.9552859 0.562175 0.4852676
0.304926 0.1037156 0.3050483 0.6493358 0.61877227 0.29688993 0.6444041 0.94618034
0.045129012 0.9491885 0.5733011 0.46650586

conv.3.bias f4 [36]
00000000: 2c70 94bc b982 ddba 8ec7 c7bc 0aa0 f03b
00000010: a4cd fe3b c425 c2bc b765 57bc 8f0f c13c
00000020: 32c6 c7bb 8830 a83c d3d6 94bb c4c1 01bc
00000030: 3175 463c daed 063c 7db3 11bc 365f 003d
00000040: ea81 5f3c ec0a d7bc 4d48 843c 046b 9abb
00000050: c9b7 95bb 3b17 64bc 43bc 8e3c 5f82 b03c
00000060: d663 18bb c027 97bb 8387 1c3c 6dc8 b53c
00000070: 175e 26bc 0ab2 dd3b aa66 07bc 6d3f 213c
00000080: c2d8 093b 461e 5cbc b5e5 2a3b b7cc d63b
-0.018119894 -0.001689992 -0.024387147 0.007343297 0.007775979 -0.023699649 -0.013146809 0.02356699
-0.006096625 0.020530954 -0.0045422106 -0.0079197325 0.012112902 0.008235419 -0.008892891 0.0313408
0.013641814 -0.026250325 0.016147757 -0.0047124643 -0.004569028 -0.013921554 0.017423755 0.02154654
-0.0023252866 -0.004612893 0.009553793 0.022190297 -0.010154269 0.0067656087 -0.008264223 0.009841782
0.0021033739 -0.013434952 0.0026076857 0.0065551656

conv.3.running_mean f4 [36]
00000000: a66c 16bc 1b0a 7abd 1260 99bc 1c94 313c
00000010: 656a 10bd ef10 c5bc 8293 86bd 9b5c 733d
00000020: 0fad 02bd a08b 4abd 03f7 be3c f21f 85bd
00000030: c3c9 e53d 219f 1d3c 2f54 f9bb 9975 ec3b
00000040: 9140 4c3d 0fcb 96bd efe9 af3b b6e4 5a3d
00000050: f2e7 b1bd 5235 6b3d 1ad8 d1bd 1cbd 27bc
00000060: 496c 0c3e f146 57bd a4a0 a63d 0416 383b
00000070: 85de 91bd bd5b c6bc 54ae 4cbc f628 903c
00000080: 881a 3abd 7fed dfbd 2510 ddbd 6ad4 77bc
-0.009181177 -0.061044794 -0.018722568 0.010838535 -0.035257716 -0.024055926 -0.06571104 0.059414487
-0.031903323 -0.049449563 0.023311144 -0.06500234 0.112201236 0.009620459 -0.0076089124 0.007216167
0.049866263 -0.07362949 0.005368463 0.053440772 -0.08686818 0.057423897 -0.10246296 -0.010237958
0.13713183 -0.05255789 0.081361085 0.0028089294 -0.0712252 -0.024213666 -0.012492735 0.017597657
-0.04543546 -0.10933971 -0.10794095 -0.015126327

conv.3.running_var f4 [36]
00000000: 402a 143b 3c5c 043b 5d59 393b b387 0d3b
00000010: b6a8 dc3a ea66 203b b04d 163b 8475 493b
00000020: b4db fe3a 3ae1 fc3a d308 fd3a d750 173b
00000030: 9dbb 303b 0bc0 0e3b c1ed 133b 8bd1 083b
00000040: c3f6 f13a fd95 2d3b 6452 033b 5d73 273b
00000050: f098 4b3b 9fe6 1f3b 2b5c 353b d749 f63a
00000060: 51c1 243b 02d8 ed3a 3af2 403b a64e 123b
00000070: f96c 303b 3056 e33a 3b78 0c3b 2ef7 123b
00000080: 417d fc3a 9fc5 0d3b cb21 233b f280 173b
0.002260819 0.0020196578 0.0028282024 0.0021595776 0.0016834948 0.0024475404 0.002293449 0.003074021
0.0019444139 0.0019293197 0.0019304998 0.0023088956 0.0026967295 0.0021781947 0.0022572132 0.002087685
0.0018460382 0.0026487105 0.0020038122 0.002555094 0.00310665 0.0024398935 0.0027673345 0.0018790317
0.002513964 0.001814604 0.0029441253 0.002232471 0.0026920422 0.0017344411 0.0021433968 0.0022425163
0.0019263403 0.0021632684 0.0024891968 0.002311763

conv.5.weight f4 [72, 36, 16]
00000000: a313 973b 9f09 d2bc c354 5b3b 6f1c d9bc
00000010: fdc7 fd3c 1cf0 1e3d 195f 0b3d 1d6b cf3c
00000020: 0df5 ed3b 17b3 fabc 0e6a b739 9899 573c
00000030: 7567 573a 6aa5 873b 10af 6d3d 1472 1a3b
00000040: bcea 993b 277f 0bbd ed30 c3bc 7463 fdbc
00000050: 30b4 bf3c fbcb 613a eccb 293d e3dd 2d3d
00000060: 8df5 bfbc 916a 313c c882 853c 368a dc3c
00000070: a053 08bc af92 bfbc 5f8c 853d 901a d9ba
00000080: 7a6e 893b 6fff 1abc 2c97 1ebd 211e 04bc
00000090: d6aa 4e3d a739 a3bc c788 43bc 5609 f3bc
000000a0: 7639 c53c d0d7 71ba b4a0 333d 9b04 473d
000000b0: 6aac 983d faf9 20bd 2156 903c 470b c83b
000000c0: 6a0e 053d 9c43 a1bc 978a 72bc de24 80bc
000000d0: 0244 4ebb 01fa 783c 244c 373d 0d6c 5dba
000000e0: 8678 df3c 6721 033d 872d 3ebc 3bd8 623d
000000f0: 2424 613c 9596 2b3d 07c7 08bd e868 723b
00000100: 79e5 0e3c 4180 3cbd 18e6 06bd 0fcc 3abd
00000110: a1b7 8c3c c67f 11bd 60a7 943b fb7a 83bc
00000120: 17a0 80bc f055 95bc d922 44bd 86de 42bd
00000130: 939a c93c 3183 f73b 202a f3bb d3af 96bc
00000140: 0448 33bc 6431 1cbc f31a 5fbc 0bef 16bd
00000150: 7d8b 1d3d 58df 57bc 5b00 e8bb 2a91 24bc
00000160: 2358 453c 68cf 5ebc 3708 4dbc 4364 07bd
00000170: d965 9e3c ee63 b7bc c30f ae3c d517 e13c
00000180: 6510 333d f72a 3ebc 571b 7a3a 655f 0cbd
00000190: 69c9 d73c 2058 aebc 2694 7e3b b00f dabb
000001a0: e51c 2dbd 555e 80ba 1e6b cc3b 1a19 053d
000001b0: 0f60 8c3c e8a2 66bc 422b ae3c a823 ef3c
000001c0: 59bf 823c 70e0 27bd ea1b 2e3c d2fe 763c
000001d0: 73b6 32bc c3b2 90bc 448f 053d 0939 36bc
000001e0: 6733 0bbb d55f f2bb 351f 00bd 8b5f 363b
000001f0: 912d 33bd 7dc0 10bd a636 4fbb 8aa1 593c
00000200: 95e8 96bb 0701 50bc 3dea f3ba b2b3 e43b
00000210: 685b b6bc eeb6 523d 96ce 663d 4580 2bbc
00000220: 262b ed3c baa5 a63c d4dd 9e3c fa8c 34bd
00000230: 3805 8f3c 1744 c7bb 90e8 d23c 8c47 313d
00000240: be14 12bd 6fc8 9e3d 815b 6dbd b64d 02bd
00000250: 2ae7 f9bc e03e 93bc e6d3 533b 78a6 81bb
00000260: 70bb b9bc dd6d a93d 6995 e53b 8d67 f03b
00000270: 15f6 92bb 1501 20bd 1958 963c c7f0 de3c
00000280: 8652 a53c 0540 2f3b 92bc c9bc 2ae2 48bd
00000290: ad80 4e3a d7bd 7a3c 017e 35bd d3bc a53c
000002a0: 8fa6 dd3c db85 c1bc 2f49 c93c a57c ccbc
000002b0: 3fea c43c 20ad b93b 440d 853b c2f8 e7bc
000002c0: 7f2c 083d 7dc8 7e3c c8bc 58bb 7926 35bc
000002d0: 9c08 263d 4e1a fd3c f011 d7bc c032 df3b
000002e0: dee6 37bb b5be f93b d5e3 bd3b c48f 543d
000002f0: 690e 6d3a e1ec ccbb b3ec 953c d671 4c3b
00000300: 0411 febb 0758 333c b1d5 353c 9022 2cbd
00000310: c5bf 543d 53b1 df3c 3265 3fbd 1552 043d
00000320: 7365 9e3c 9d1a b83c 48ef cbbc a7d2 c5bc
00000330: 9c09 693d 0673 a63a e40c bf3c 188a 2dbd
00000340: 3845 853b f91c 9b3c 2d3d fd3c c1ee 283d
00000350: f7c1 05bd 32b2 5a3c 6271 aebc 34a6 eebc
00000360: 9c1a dc3c 6320 503d 3154 a03b 6847 02bd
00000370: b294 a93c 267f 8d3d 0130 e43c 8da4 4abc
00000380: 8b0f f13b c2ba 73bc 1f27 af3c d038 9dbc
00000390: 539a 05bd 7d30 16bc 64d0 453d 4edc f739
000003a0: 01fe 17bc 6b5d 133d d0a6 b33b 5277 583c
000003b0: 5f43 e83c 2013 4e3d c650 783d 3ddf a1bc
000003c0: 031a 15bc 9127 253d 6e69 313d d8b5 b73b
000003d0: 9e42 37bc 9a3e 1a3d 6eca 443c 8e06 12bd
000003e0: 0f77 c3bb 94cb f93b c76c 0e3d dd69 d1bc
000003f0: b913 aebb fd90 f6b9 8667 543c bc8b 16bd
0.004610495 -0.025639353 0.003346727 -0.026502816 0.03097915 0.038803205 0.03402624 0.02531963
0.0072618783 -0.030602975 0.00034983497 0.013159178 0.00082170154 0.004139592 0.05802828 0.002356653
0.004697172 -0.03405681 -0.02382704 -0.030931212 0.02340135 0.00086134643 0.04145424 0.042447936
-0.023432517 0.01082863 0.016297713 0.026921373 -0.008320719 -0.023385374 0.06520914 -0.0016563702
0.004194078 -0.009460314 -0.038718387 -0.008063824 0.05045589 -0.019924952 -0.011934466 -0.029667538
0.024075251 -0.0009225579 0.04385443 0.048588376 0.074547604 -0.039300896 0.017619194 0.00610486
0.03248445 -0.019685559 -0.01480355 -0.01564258 -0.0031473641 0.015196324 0.044750348 -0.0008446582
0.02727915 0.032014277 -0.011607534 0.055381995 0.013741527 0.041891653 -0.033392932 0.0036988799
0.008721703 -0.04602075 -0.03293428 -0.04560476 0.017177405 -0.035522245 0.004536554 -0.016049853
-0.015701337 -0.018229455 -0.047884796 -0.047575496 0.02460984 0.007553481 -0.007420793 -0.018394386
-0.010942463 -0.00953326 -0.013617265 -0.036849063 0.038463105 -0.013175808 -0.0070801205 -0.010044375
0.012044939 -0.013599254 -0.012514166 -0.0330546 0.019335674 -0.022386517 0.02124775 0.027477184
0.043716807 -0.011606923 0.0009540817 -0.034270663 0.026341157 -0.021282256 0.0038845628 -0.006654702
-0.042263884 -0.0009793738 0.0062383553 0.03249464 0.017135648 -0.014076926 0.021260861 0.029191807
0.015960382 -0.040985525 0.010626772 0.015075402 -0.010907757 -0.017663365 0.032607332 -0.011121997
-0.0021240355 -0.007396678 -0.03127976 0.0027827944 -0.043744627 -0.03533982 -0.0031618266 0.013283143
-0.0046053627 -0.012695557 -0.0018609237 0.006979429 -0.022260383 0.051443987 0.05634936 -0.010467594
0.028951239 0.020342696 0.019392885 -0.04407976 0.017458543 -0.006081115 0.02574566 0.043281123
-0.035664313 0.077530734 -0.057948593 -0.031812392 -0.030505735 -0.017974317 0.0032322346 -0.003956612
-0.022672385 0.08272908 0.0070063365 0.007336563 -0.0044849017 -0.039063532 0.018352555 0.027214421
0.020180952 0.002674104 -0.02462605 -0.04904381 0.00078774506 0.01530405 -0.04430962 0.02023164
0.02705696 -0.023623398 0.02457103 -0.024961779 0.024037478 0.00566639 0.0040604193 -0.02831686
0.03324556 0.01555073 -0.0033071507 -0.011056536 0.040535554 0.030896332 -0.02625367 0.00681147
-0.0028061192 0.007621611 0.005794982 0.051894918 0.000904298 -0.006253824 0.018301344 0.0031195781
-0.0077534933 0.01094628 0.011098311 -0.04202515 0.0519407 0.027306234 -0.046727367 0.032304842
0.019335484 0.022473628 -0.024894372 -0.024148298 0.05689393 0.0012699075 0.023321576 -0.042368025
0.0040670894 0.018934714 0.03091296 0.04124332 -0.032655682 0.013348149 -0.0212943 -0.029131986
0.026868157 0.050812136 0.004892849 -0.03180638 0.020700786 0.06909017 0.027854921 -0.0123683335
0.007356589 -0.0148760695 0.02138096 -0.01919213 -0.03261788 -0.009166834 0.04829444 0.0004727565
-0.009276868 0.035977762 0.005482532 0.013212042 0.028352438 0.050311208 0.060623907 -0.019759769
-0.00910044 0.040320937 0.043313436 0.0056063943 -0.011185316 0.037657358 0.012011154 -0.035650782
-0.0059651206 0.0076231454 0.034771707 -0.025563175 -0.0053124097 -0.000470288 0.012964135 -0.036754355

conv.5.bias f4 [72]
00000000: c97a 2b3c f329 0fbd fa7e e83c 1e50 c3bc
00000010: 7074 9e3c ef0d de3c 91d3 1fbd 5c63 9d3c
00000020: 7370 03bd 610a 0f3d 8391 babc 2e10 02bd
00000030: 7fea 88bc 7f9a 46bc 9325 7c3c e64c 043d
00000040: e44f 69bc 60f9 dfbc d6da f83c 13e0 de3b
00000050: f47d b73c 8f7c 3d3c c0f7 933c 960a 3a3c
00000060: e8a7 1e3c ee76 c4bc 8a6d 43bc 2d5b 1f3d
00000070: 669f 1a3d e270 08bd 46ba 223d f185 d5bc
00000080: 0717 223c b4b0 023c d8d7 b73b ca58 b4bc
00000090: e786 4b3c 8eff 8fbc e513 773c 59e4 f73c
000000a0: ccce 223c 84d6 2a3b 6e6c 433c 9af3 273c
000000b0: 60bd 103d dfb8 f4bc 69b6 e2bc df94 d03b
000000c0: 9003 23bc 4c5c cb3c af61 babc 70d8 1b3b
000000d0: 7e8b f03a 4231 883c 76b3 21bc b9a8 363c
000000e0: 1a28 5d3c c988 96bc a2d8 0a3d 18ed 0f3d
000000f0: b5b1 983b 8bf1 b43c 141c 0d3d ef68 9bbb
00000100: 2e9d 223d e24b 47bc 099f a53b fc02 ac3b
00000110: ffe8 2f3c 6b18 833b 37fb dbbc 2ccb 1cbc
0.010466286 -0.034952115 0.02838086 -0.023841914 0.019342631 0.027106253 -0.039020125 0.019212417
-0.03208966 0.034922007 -0.022774464 -0.03175371 -0.016713379 -0.012121796 0.015389818 0.0322999
-0.014240239 -0.027340591 0.030377787 0.006801614 0.022398926 0.011565342 0.018062472 0.011355063
0.009683587 -0.023982491 -0.011927972 0.03890531 0.03774967 -0.03331078 0.039728425 -0.026064845
0.009893185 0.0079767 0.0056104474 -0.022014994 0.0124223 -0.017577913 0.015080427 0.030260252
0.0099369995 0.0026067803 0.011927707 0.01025095 0.035336852 -0.02987331 -0.02767487 0.006365403
-0.00994958 0.024824284 -0.022751657 0.002378013 0.0018352119 0.01662505 -0.009869447 0.011148625
0.0134983305 -0.018375771 0.033898003 0.03513822 0.004659856 0.022087833 0.034450606 -0.0047427337
0.03970068 -0.012164088 0.005054359 0.005249379 0.010736703 0.0040007136 -0.026853187 -0.009569924

conv.6.weight f4 [72]
00000000: 74db 113e 34ac 4a3f 372a 493d 09db 353f
00000010: 71a7 d83e 8350 663f 8c82 7e3f dcc2 013f
00000020: 05e7 553e 8eac 7f3e 2dbf 0b3f dd3d 5b3f
00000030: 7565 ee3e e396 793f a571 be3d 2c94 1d3d
00000040: a1cc 3a3f ee77 943e cca2 673f 61eb a03e
00000050: 1f91 253f 446c 173d dc59 723f c340 0c3f
00000060: 268d 0b3e 0a3a d33e 5575 343e 9911 e83e
00000070: 2115 3f3f 7840 d83e ebc1 b83e 6baa 083e
00000080: 1b95 4c3f 96c2 e83e cd3e 723d 8c1a 473d
00000090: b369 b93d 223a 5e3e 1f65 883e 4136 ac3e
000000a0: 4622 463f 03ff b13d 3001 443f ab24 863e
000000b0: ffb8 e13d 8057 703e c389 2c3f 3250 923d
000000c0: 9e74 653f 4e82 663f bcba 693e 6720 e23e
000000d0: ec5b 783f 89ec af3d e5d9 183f 7739 d83e
000000e0: 45a1 813f ad49 bb3d 080d 9e3e 1ac8 7e3f
000000f0: ad49 523f 252d c93e 2357 e93e 4217 fe3e
00000100: a805 7f3f d286 603f f330 2c3f 0f89 7e3f
00000110: f8df 723e e06c 0e3f 5545 053e b5b2 a63d
0.14243871 0.7916901 0.049112525 0.71037346 0.42315248 0.899666 0.9941795 0.50687957
0.20888908 0.24968168 0.54588586 0.8564127 0.4656178 0.9749586 0.0929902 0.038471386
0.7296849 0.2899775 0.90482783 0.3142958 0.6467456 0.036968485 0.94668365 0.5478632
0.13628063 0.41255218 0.17622884 0.45325926 0.74641615 0.42236686 0.36085448 0.1334626
0.79915017 0.45460957 0.059141923 0.0486093 0.09053364 0.21701863 0.2663965 0.33635142
0.7739605 0.08691218 0.7656431 0.2619985 0.11021613 0.23470879 0.6739771 0.07144202
0.8963107 0.9004258 0.2282514 0.44165346 0.9701526 0.085900374 0.5970748 0.42231342
1.012734 0.09144912 0.30869317 0.9952408 0.8214367 0.39292255 0.45574293 0.4962712
0.99618006 0.8770572 0.6726219 0.99427885 0.2371825 0.5563488 0.1301473 0.081395544

conv.6.bias f4 [72]
00000000: e97d 093c 16ff 1c3c 20d6 be3c b499 fa3a
00000010: 099e 6f3c 93e0 2abb b70e 043c 3349 823c
00000020: bb6e 92bc 790e 7c3c 839a b53a 4c0c ad3b
00000030: 44c3 0e3d d6ff 00bb d62a 9d3a 37ed 84bc
00000040: 262e 023d ae2c 053d 23c1 993c 86f8 c23b
00000050: 7964 faba bc46 a23c bac5 04bd 8caf aabc
00000060: 86ba e9bc ec6f 6d3b 9b47 93bb ab3c 893c
00000070: b5c4 883c b50e 79bc 7adf aabc 0033 083c
00000080: 1bb3 023b 8214 003c 0519 e039 87be 8b3c
00000090: ab87 883c 3222 c73b ae9d d1bc 9915 c63c
000000a0: d4dc 82bc 63a9 f3ba 39ab 2c3c ec0c e73c
000000b0: 187a 383b 0a8e 7b3b 5669 dc3c 2179 a43b
000000c0: fc9f e4bc 01bf 2d3b ce9d 14bc b192 4f3c
000000d0: 165c 58ba 46cb 823c 96e7 3dbc fe8f 973c
000000e0: 666d 793c 64cc 2c3c 2f45 853c a0e8 52bc
000000f0: 1d0e c3bb e01f 063d 5d39 d53a 89fd 143c
00000100: 1bac f83c ab94 d8bb 8425 84ba d7ce a53c
00000110: 551f b23c 9a61 a73c 3988 2fbc 21dc 373b
0.008391836 0.009582302 0.023295462 0.0019119293 0.014625081 -0.0026073798 0.008060149 0.015904045
-0.017875066 0.01538431 0.0013855252 0.005281007 0.03485419 -0.001968374 0.0011990916 -0.016226394
0.03178229 0.032513313 0.018768853 0.0059500365 -0.001910343 0.01980912 -0.03241513 -0.02083566
-0.028531324 0.003623004 -0.00449462 0.016752562 0.01669536 -0.01520126 -0.020858515 0.008312941
0.001994318 0.007817389 0.0004274325 0.017058624 0.016666254 0.0060770744 -0.025587883 0.02418022
-0.01597444 -0.001858991 0.01053887 0.028204404 0.0028148945 0.0038384222 0.026905697 0.0050193225
-0.027908318 0.0026511552 -0.009070827 0.012669251 -0.0008253468 0.015966069 -0.011590859 0.018501278
0.0152238365 0.010546777 0.01626834 -0.012872845 -0.00595261 0.032745242 0.0016267706 0.009093651
0.030355504 -0.0066095195 -0.0010081981 0.02024023 0.021743456 0.020432282 -0.01071363 0.002805479

conv.6.running_mean f4 [72]
00000000: 2f6f 8d3e fb3a 1fbf ece2 a23d 7336 243e
00000010: a7e3 9a3e 19e3 3d3e 62c2 763c f850 663e
00000020: f5f3 63bd 0a51 c23e 40fa 113e 4ec1 2f3e
00000030: e8d9 d5bd ee96 82bd 756a 0c3e 7b76 01bd
00000040: 1c03 6a3e 167e 8b3e e19d 34be 6e3c 963e
00000050: 4a17 803e a38e 943e a225 263c d4cd d53e
00000060: 742e 7bbe 31b7 d33d 88af e13d 4909 d3be
00000070: 0327 f3bd 3278 01bf 9497 e13d c4df a93b
00000080: 05b2 303e 15ec 043e 535c 4e3e 0e0d 5a3e
00000090: c4a7 07bd ba14 d63d 2ddc 55be db05 973e
000000a0: ccf2 313d 5418 623d 5df8 edbe 5d37 e73d
000000b0: 3758 273e f41e 1ebb 0fb4 453e 5ec0 553e
000000c0: 9855 3c3e e595 a03e 2390 c8be 65b7 873e
000000d0: 72f1 f73e 529c 7a3e 9047 eebc a9ae 1fbf
000000e0: afe1 613e 0259 e43d 56a4 293e a871 04bf
000000f0: 728c d9be 7c2e 06bf e08b 0dbe e240 083e
00000100: 339f 093e 33f1 783e d8ea 923d 8521 a93d
00000110: fb11 453e 900d 8d3d 951f 8f3d 660a 753e
0.2762389 -0.6219937 0.07953438 0.16036396 0.3025181 0.18543662 0.015060993 0.22491825
-0.055652577 0.37952453 0.14255619 0.17163584 -0.10441953 -0.06376444 0.13712485 -0.031607132
0.22852749 0.27244633 -0.17638351 0.2934298 0.25017768 0.29015073 0.010140808 0.41758597
-0.24529439 0.10337675 0.11019808 -0.41218022 -0.11872675 -0.5057403 0.11015239 0.0051841456
0.17255409 0.12980683 0.20152406 0.21294042 -0.03311898 0.10453172 -0.20884772 0.29496655
0.04344444 0.055198982 -0.4647855 0.112898566 0.16342245 -0.0024127336 0.19306968 0.20874164
0.18392026 0.3136436 -0.39172468 0.26507106 0.48426396 0.24473694 -0.029086858 -0.62375885
0.22058748 0.111497894 0.16566595 -0.51735926 -0.42489964 -0.5241468 -0.1382289 0.13306001
0.13439636 0.2431076 0.07173699 0.082583465 0.1924514 0.068873525 0.06988446 0.23929748

conv.6.running_var f4 [72]
00000000: 410b 343e 2892 143f 3557 343e 1c5b 2b3e
00000010: 3952 653e c69a 1f3e 1bb7 173e fc4e 183e
00000020: bb12 dc3d 42e2 463e 075a 293e 5796 543e
00000030: 5191 1b3e 139e 223e 8d32 213e de4f 0b3e
00000040: f707 973e 982d 553e 1e9b 143e c74d 503e
00000050: 84aa 243e 4d93 223e b2e6 cd3d 574e e03e
00000060: 0878 6d3e 8a40 cf3d b3c8 cd3d 5407 c13e
00000070: 9ca0 1d3e a03f ce3e e772 3f3e c247 d23d
00000080: 674c 233e 2485 ed3d 8c2d 143e ad46 1e3e
00000090: 894a 013e 0563 1a3e 8f73 5a3e bd61 4f3e
000000a0: 6cb2 133e faf2 d83d 25ff e63e b8ea 403e
000000b0: 67c8 f33d 1f1e e23d 6cc1 443e da00 fc3d
000000c0: 2eb1 163e 80d0 573e 62a2 bd3e 5200 813e
000000d0: 1245 bc3e 12e3 7e3e 37b2 b53d 2af2 f73e
000000e0: 9e41 673e e76d d93d c083 d23d ce56 d83e
000000f0: 24c0 973e 6e20 c13e 1d61 3c3e 0b42 053e
00000100: bc7b 0b3e 6b89 373e 564b ee3d 61db 3b3e
00000110: 2510 113e ec43 053e 12ef e33d e7ec 413e
0.17582418 0.58035517 0.17611392 0.16733974 0.22394647 0.15586385 0.14815943 0.1487388
0.1074576 0.19422248 0.16538249 0.20760475 0.15192153 0.15880613 0.1574194 0.13604686
0.29498264 0.20818174 0.14512298 0.2034217 0.16080672 0.15876503 0.10053767 0.4380977
0.2319032 0.10119732 0.10048046 0.37700903 0.15393299 0.40282917 0.18696176 0.10267593
0.15947114 0.1159766 0.144705 0.15456648 0.12626089 0.15076835 0.21333145 0.20252128
0.14423531 0.10593219 0.45116535 0.18839538 0.11903458 0.110409014 0.1921441 0.1230485
0.14716026 0.2107563 0.3703795 0.25195557 0.36771446 0.24891308 0.088718824 0.48426944
0.22583625 0.10616665 0.102790356 0.42253727 0.2963878 0.37720054 0.18396421 0.13013475
0.1362142 0.17923515 0.11635463 0.18345405 0.14166315 0.13014191 0.111295834 0.18938027

conv.8.weight f4 [128, 72, 3]
00000000: 87de c9bc f1c2 32bd 5418 9f3d dae1 66bd
00000010: 2df9 e1bc 6ac0 703d 3c30 953d 0128 30bc
00000020: a061 54bd 6eee 9c3b 77eb 25ba 3ce5 983c
00000030: 2270 a73c 997d 833c 524f 2f3c f953 d03c
00000040: a6af 23bd a3f0 9c3d 150f b53b 532b 0bbd
00000050: b55c 293c 114c 783d 4476 033d 7904 9f3d
00000060: b77a 9ebb a948 78bd f702 0cbd c5cf 443c
00000070: 5b27 f6bc 11dd 38bd c2ca 16bd e746 2a3d
00000080: 99e4 39bc 8026 43bd 4a49 4bbd db1d cfbb
00000090: 2572 9a3d 2f79 17bd a838 43bd ef91 803d
000000a0: 8f1f 743c c2dc 79bd 32f2 9d3d 0741 023d
000000b0: f34e 23bc 115c b1bc ac7d f1bc 287f c13c
000000c0: ec2b b7bc 6803 c23c b771 c6bc f4bf 4d3d
000000d0: aa52 893d 4949 87bc 56c0 633d b4ba 613d
000000e0: 874e 68bd de11 7abd d94f 0f3d 96ab 1bbc
000000f0: b0cc 48bd 39ac 6bbc efc9 623c d9ba 4abd
00000100: e9fe 623d a0ff b03b b678 12bd 2403 193d
00000110: d53f 283d c089 9a3a a545 9cbc 29c3 a4bc
00000120: 8858 ffbc aac0 bcbc 6e37 473c ff15 033a
00000130: dc91 a03c 16ca 303b 1790 983c 66fc 1b3d
00000140: 15f3 9e3d 7ba7 54bd 66ce b63c d21c 73bc
00000150: d356 fabc 3014 593d 9d73 07bd b4c5 c8bc
00000160: 9e4a 423d 5dc0 583d c205 96bd 7ffe 4abd
00000170: baa7 95bd 71b0 84bd 280a 933d 7a81 20bd
00000180: 1a02 673d 942f 3f3d 7c06 3a3d fcca 4cbd
00000190: 8a7f 0f3d ed8a b13c ebcd acbc ac28 823b
000001a0: 3a20 d1bc c3f3 59bc 1549 4b3a 1233 a73c
000001b0: 80a2 07bd 2182 993d 52f4 81bd 4693 2dbc
000001c0: 45b9 583c 0a66 05bc c221 b03c f1f6 8fbd
000001d0: 447f abbd 0af1 753c fa37 a23d 9e2a eb3c
000001e0: c29f 8bbc dab9 27bd e724 223d ae44 abbd
000001f0: 169b 003d ddae a33d ffe2 6bbd 413e 99bd
00000200: bf1f 893c 8bbf 84bc edd2 0d3d cb8c e3bb
00000210: 9dd6 0cbd 5f9e 483d eaf7 7a3d 7a26 eebc
00000220: aa70 ec3c 3a6e 223d 10ee 6d3d a3b5 5f3d
00000230: 3b82 2bbd 7668 893d 5ef8 81bc 5ca0 703d
00000240: 4b73 b4bc c1fa 5dbd cd64 763c 7bf7 9e3c
00000250: f28e 2c3d c4ef 583d 443f 873d f781 debb
00000260: a50e 903c b4c2 8fb9 b2d9 b4bc ea4d 10bd
00000270: f1b2 503d 2cdd 4e3d c26b 693d ccfa 323d
00000280: d4a2 103c 125b 2bbd 1ff3 a93c b7cd 7f3d
00000290: 507a 793d 6cbc f63b 3038 70bd 20d5 cbbd
000002a0: da59 9f3b 0973 46bd a2f1 aa3d 1704 743c
000002b0: 0ab3 30bd 395e b33c 85e1 c83c 5d03 523d
000002c0: f638 413d 4a82 553d 2ca7 61bd 76d0 17bd
000002d0: 0c3d b1bd 29f0 97bc dd51 c63c 3754 083d
000002e0: 36b0 30bd 12a8 093d 12c5 d23c 44d2 5b3d
000002f0: cfae 3cbd 4cad 34bd 820e 6b3d 420b 52bc
00000300: 5757 a53b c139 523d 2062 2cbc d6fd 9c3c
00000310: a249 3cbd 4dcb 6e3c ea1c 2cbd eaf0 9e3d
00000320: 365d 4abd 40fb 8dbb ecf6 a7bc cf8e 5d3d
00000330: dac8 5bbd 5f2e bc3c 5f24 113d 8662 74bd
00000340: 957e e73c 351e 283d 00c4 b83d 351d 303d
00000350: 5302 2abd 36b7 82bc 51cf 273c 136e c83b
00000360: 3c9e ae3d 637b 3dbd 1da4 febc 2694 4bbc
00000370: dc97 9a3d 0c47 b3ba 2d3d 06bd d897 1b3d
00000380: 8dcc 353d 58bf 5bbc dc4f 8bbb 6f19 7ebc
00000390: 2d9f f7bb d677 863d 786e b1bd 1228 87bc
000003a0: 3991 3bbd 968b 333b 63ab 9cbd 3d23 80bc
000003b0: b009 fd3c bd04 68bd fe88 6d3d 5645 34bd
000003c0: d647 0bbd 43ea 04bd 184b 863c d51f e1bc
000003d0: 2173 f9bc 46e2 95bd b7b4 ca3b d9d5 59bd
000003e0: 0eb8 0cbc 7672 1bbc 43d5 eabc a825 2c3d
000003f0: fee4 61bd 6e22 31bc 5bab 37bc ee4f e4bc
-0.024642242 -0.04364294 0.07768312 -0.056367733 -0.027584637 0.05877725 0.072845906 -0.010751725
-0.051850915 0.004789165 -0.00063293375 0.018663995 0.020439211 0.0160511 0.010700064 0.025430666
-0.039962433 0.07663085 0.0055254796 -0.033976864 0.0103370445 0.060619418 0.03209521 0.07764525
-0.004836406 -0.06061617 -0.034182515 0.012012427 -0.030048063 -0.0451327 -0.03681446 0.041571524
-0.011346006 -0.04764414 -0.04963044 -0.0063206977 0.075413026 -0.036980804 -0.047661453 0.062778346
0.014900102 -0.061001547 0.07712211 0.031800296 -0.009967553 -0.021650346 -0.02947887 0.023620203
-0.02235981 0.023683265 -0.024224145 0.05023189 0.0670522 -0.016514437 0.055603348 0.055109695
-0.056715515 -0.061052196 0.034988258 -0.0095013585 -0.04902333 -0.014384323 0.01384209 -0.049494598
0.055418883 0.0054015666 -0.03575965 0.03735651 0.0410765 0.001179032 -0.019076178 -0.02011259
-0.031170145 -0.023041088 0.012159212 0.0005000531 0.019600801 0.0026975921 0.018623395 0.038082503
0.07761208 -0.051917534 0.022315215 -0.014838414 -0.03055898 0.052997768 -0.03306924 -0.024508335
0.04743444 0.052917827 -0.07325317 -0.049559113 -0.07307382 -0.06478966 0.071796715 -0.03918598
0.05639849 0.046676233 0.04541634 -0.04999827 0.03503374 0.02167269 -0.021094283 0.0039721336
-0.025528062 -0.013302746 0.00077547255 0.020410094 -0.033113956 0.07495523 -0.063454285 -0.010594195
0.013227765 -0.008142004 0.021500472 -0.07029522 -0.08373883 0.0150110815 0.07920833 0.028706845
-0.017043952 -0.040948726 0.039585974 -0.08362709 0.0313979 0.07992337 -0.057589527 -0.07482577
0.01673877 -0.016204616 0.034624983 -0.006944274 -0.03438436 0.04897916 0.061271586 -0.029071081
0.028862316 0.0396559 0.058088362 0.05461658 -0.041872244 0.067093775 -0.015865501 0.05874668
-0.022027632 -0.054194216 0.015038681 0.019405117 0.04212851 0.052963033 0.06603864 -0.0067903954
0.017585108 -0.0002742015 -0.022076461 -0.035230555 0.0509519 0.050503895 0.05698753 0.04369621
0.008827884 -0.0418349 0.020745812 0.062452044 0.060907662 0.007529786 -0.058647335 -0.0995276
0.004863006 -0.04844955 0.08346869 0.014893553 -0.043139495 0.021895515 0.024521599 0.05127274
0.047173463 0.052126206 -0.05509107 -0.03706404 -0.08654222 -0.018547134 0.024208957 0.03328344
-0.043136798 0.03360755 0.025728736 0.05366732 -0.046065148 -0.04411058 0.057386883 -0.012820067
0.005045812 0.05132461 -0.010521442 0.019164007 -0.04596866 0.014574838 -0.042019762 0.077607945
-0.0494053 -0.00433293 -0.020503484 0.05409127 -0.053658344 0.02297133 0.035435077 -0.05966427
0.028258601 0.041044433 0.09021759 0.042996604 -0.041506123 -0.015956502 0.010242299 0.0061166375
0.085262746 -0.04626025 -0.031084115 -0.012425458 0.07548496 -0.001367779 -0.032773186 0.037986606
0.044384528 -0.013412319 -0.0042514633 -0.0155089935 -0.007556817 0.06565826 -0.08663648 -0.0164986
-0.045792792 0.0027396432 -0.07649877 -0.015641803 0.030888408 -0.056645144 0.057991974 -0.044011436
-0.034004055 -0.032449972 0.01639323 -0.027480999 -0.030450406 -0.07318549 0.0061860937 -0.053182457
-0.008588804 -0.009487739 -0.028666144 0.0420281 -0.055150025 -0.010811431 -0.011210288 -0.027870145

conv.8.bias f4 [128]
00000000: 3946 afbc d6e4 eaba 3e6a 8b3c e378 c4bc
00000010: e21c 78bd 3bf1 57bd 6f82 373c 093e 96bc
00000020: dfa9 0bbd 7402 b03c f7d0 f1bb f2f5 47bd
00000030: f961 5e3c 13dd 2b3b 1f03 36bc c6f4 ab3b
00000040: 3a41 ecbc f49d b63b 1af9 d1bb 8775 7dbd
00000050: 5b8a 13bd e48d bebc 544a dfbc 47c4 85bb
00000060: 8c2f 42bb 149e 593d 722f bebc 7afb 573d
00000070: 0bf7 6a3d ac0b 3d3a 95b0 843d d791 43bd
00000080: 5095 3cbd 0a08 023d 4838 71bd 3adf eebc
00000090: fa56 423d b31a 77bd adaa 303d fd55 7d3d
000000a0: 6fee 063d bb38 33bd 739f 2c3b 73e8 a8bc
000000b0: 22cf 0c3c 05e9 703d b863 5cbd 3660 27bd
000000c0: 85e0 b9bc 58f7 50bd 87fd 69bb b071 223d
000000d0: f121 7abd d5b2 5b3c dff2 0a3d e862 dabb
000000e0: d973 8b3d 3db5 2c3d b9b3 253d 0f00 38bb
000000f0: 7ec5 e03c 0238 813d 409b 743d 0152 1a3c
00000100: 990d 4e3d 70e2 713d 8ce6 a4bc 2ded 06bd
00000110: 8111 55bd c37a 643d e426 15bd 2f84 6a3d
00000120: 4951 c1bb a6c6 183d 5715 09bd 8fb7 5f3c
00000130: a411 84bd f238 9d3c 9a94 4abd e3de a3bc
00000140: 8151 6c3d 7f77 e3bc ff9d 883d 1b44 363d
00000150: 3cb5 fbbb a935 84bd 8e94 b3bc 5c97 5a3d
00000160: 0b6e f4bc fd07 6c3d 0093 95bc f30b ae3c
00000170: aa4a 2ebc 884e 963a ee37 14bd 0dc5 b73c
00000180: 67fa 4dbd dd35 653d b418 4fbd f351 ac3c
00000190: 060f 19bd 2076 1cbc 7b63 a5bb 8d64 2dbd
000001a0: 66b8 8a3c 9f9c 4b3d c173 5fbc 2b69 a83c
000001b0: 135c 223d 1d95 95bb 401e 40bd 6721 6cbd
000001c0: d77b 92bc c3ed a2bc bc2c 12bd 8f56 88bd
000001d0: 61ad 5dbd b7cb 3a3b af6d 863d 96ff f7bc
000001e0: 72eb ff3c b3a2 333d 4c49 11bd d67b 69bd
000001f0: 8dd6 52bd ca20 82bc ebdc 30bc 6aa7 92bc
-0.02139579 -0.0017920982 0.017018434 -0.023983425 -0.06057442 -0.05272029 0.011200531 -0.018340128
-0.03409755 0.021485545 -0.007379647 -0.048818536 0.013573163 0.00262243 -0.011109143 0.005247685
-0.028839696 0.0055730287 -0.006407869 -0.06187966 -0.036020618 -0.023261018 -0.027257122 -0.004082236
-0.002963039 0.05312927 -0.023215983 0.05273006 0.057364505 0.0007211517 0.06478993 -0.047746506
-0.046040833 0.031745948 -0.058891565 -0.029159177 0.04744623 -0.060328197 0.04313152 0.061849583
0.03294223 -0.043755274 0.0026340156 -0.020618653 0.008594306 0.058815975 -0.053806037 -0.04086324
-0.022690067 -0.051017135 -0.0035704093 0.039659202 -0.061067525 0.013409336 0.033923026 -0.0066646226
0.068092056 0.04216503 0.0404546 -0.0028076207 0.027437922 0.06309511 0.05971837 0.009418965
0.050305936 0.05905384 -0.020129465 -0.032941032 -0.052018646 0.055781137 -0.036414042 0.057254966
-0.0058995825 0.03729882 -0.033467617 0.013654604 -0.06448677 0.019192193 -0.049458124 -0.020003742
0.057694916 -0.027766941 0.0667076 0.044498544 -0.007681517 -0.06455547 -0.021921422 0.053367004
-0.029837629 0.057624806 -0.018258572 0.021245932 -0.0106379185 0.0011467496 -0.03618615 0.022432828
-0.05028763 0.05595957 -0.050560668 0.02103517 -0.037367843 -0.009549648 -0.0050472594 -0.04233222
0.016933631 0.049709912 -0.013638438 0.02055796 0.03963859 -0.004564895 -0.04690385 -0.057649042
-0.017881317 -0.019888764 -0.035687193 -0.06657135 -0.054120425 0.0028502771 0.06563889 -0.03027324
0.031240199 0.043856334 -0.035470292 -0.057002865 -0.051474143 -0.015884776 -0.010794858 -0.017902095

conv.9.weight f4 [128]
00000000: 4af6 3b3e a5d8 ae3d 6a6d 0a3e b9b3 4d3f
00000010: d531 833d 7067 863e 9ed2 2a3f 4be4 5c3f
00000020: beda dc3e 8861 de3e 191f cb3e 8d32 3c3f
00000030: 250d 473f 8cfd c63e 8ebd a53e a3c6 a83e
00000040: a659 1e3f ac55 1e3e 78ab 323f 7006 273f
00000050: 6001 bc3e b90c 2b3f 6b19 e43e 7165 1a3f
00000060: 8fa5 463d 44f6 d53e 1638 383e e7d0 7e3f
00000070: 85fc 4c3e 02e1 1f3e 7947 1a3f 696f c63e
00000080: 8951 f83e ff4c 023f 78f2 503f e2f3 1a3f
00000090: c32f 333f c646 743d 626f 4e3f 7246 ec3e
000000a0: 25e7 823f 6c59 e23e 0362 f43e 073e 5b3f
000000b0: e988 b83e 76da d73e af51 813f 10ab 413f
000000c0: a1c3 1e3f 65af 853e ca39 ea3e 1180 d13d
000000d0: a38e 3b3f e7eb a43e 212b c53d 8976 c13e
000000e0: fcc6 793f 56ce 123f 7ca6 4e3f 7a7b 2d3e
000000f0: f62a 443f 3c9d 333f 61d6 8c3e ac7f ab3e
00000100: 12fc e23e 5728 3e3e 785a eb3e add5 3d3f
00000110: f117 503f b240 183f 8473 2c3e 7da4 553f
00000120: 249b 163f 8feb 013f bd90 5f3f 892d 833e
00000130: 5246 063f f6e1 de3e c9dd 4b3f 7131 e83e
00000140: ea7b 263f 3fed 383f 8cbe 263e e213 663e
00000150: 1d6f f23e c56b 633f faeb 0f3d 566f 3f3f
00000160: 96fb 683f fd1a 943e bdb3 493f 8af7 ef3d
00000170: 92b2 4b3f 3a76 4e3f 3017 033f e061 e43e
00000180: cfb3 213f 35ed ef3b 03b6 403d 6a1c 033f
00000190: f71f 6d3f b656 3b3d 3ab8 f43e fe24 183f
000001a0: ed82 813f 4215 753f 2ec0 013f 68f9 433f
000001b0: 4041 0f3f f695 2f3f 618b 273f db61 473f
000001c0: 023a 283f 08e1 673f d512 e93e 4b4d f93d
000001d0: d753 973e d587 4d3f 1a9d fe3d 01be 543f
000001e0: 3386 293f 1510 5f3f 3707 3a3f 29d2 213e
000001f0: 4690 a73e 6e0a 003e cf2f 993e 195c 893e
0.1835567 0.085374154 0.135183 0.8035236 0.06405989 0.26250792 0.66727626 0.8628585
0.43135637 0.43433785 0.39672163 0.73514634 0.7775443 0.38865316 0.3237118 0.32964048
0.6185554 0.15462369 0.6979289 0.652442 0.367198 0.6681629 0.44550642 0.6031104
0.048497733 0.41789448 0.17990145 0.9953751 0.20018204 0.15613177 0.6026531 0.38756874
0.48499706 0.50898737 0.8161998 0.60528386 0.69994754 0.059637807 0.80638707 0.46147496
1.022679 0.44208848 0.47731027 0.8564152 0.36041954 0.4215886 1.0103053 0.75651646
0.62017256 0.26110378 0.45747215 0.10229505 0.7326452 0.3221123 0.09627367 0.37785748
0.9756925 0.57346094 0.80722785 0.16941634 0.76628053 0.70161796 0.27507308 0.33495843
0.4433294 0.18570076 0.4596746 0.7415417 0.8128653 0.5947372 0.1684094 0.83454114
0.58830476 0.5075006 0.8733023 0.25620678 0.5245105 0.4353177 0.7963529 0.4535022
0.6503283 0.7223701 0.16283625 0.22468522 0.47350398 0.8883632 0.035137154 0.7477926
0.9100889 0.2892684 0.78789884 0.11717136 0.7956935 0.8064915 0.51207256 0.44605923
0.6316499 0.0073219785 0.04704858 0.5121523 0.926269 0.04573699 0.47796804 0.59431446
1.011808 0.9573556 0.5068387 0.7655244 0.5595894 0.685882 0.6544705 0.7788369
0.6571351 0.90577745 0.4552218 0.121729456 0.29556152 0.8028539 0.124323085 0.8310242
0.66220397 0.87133914 0.7266726 0.15802826 0.3272726 0.12503979 0.29919288 0.26828077

conv.9.bias f4 [128]
00000000: 903e 4c3b 400f f8bb cd3c 60bc 8c74 63bb
00000010: 6ad3 2dbc d48c 0fbc 690e cc3b d77c 153c
00000020: b7c9 703b 0dea 053b f284 a03a 6c49 9abc
00000030: aab9 323c 5365 5e3b 224f 00bd a39a b03b
00000040: 23d7 493c 9d48 04bc c822 6dba 040a 53bb
00000050: 0f17 273b 0900 223c 2162 83ba 77d0 ff3b
00000060: 7584 8abc 551b 963c f7e7 f93b 6889 f93b
00000070: 4a4e 8fbb ca58 103c 9b20 74bb b14e ecbb
00000080: c17c 383b f42a 3c3c e432 5d3c 0889 293c
00000090: e15a 70bb 45c6 25bb e59f ba3b 338b 183c
000000a0: 2470 d63b 58ea babb bc2b 963c 6d26 15bc
000000b0: 566b ad3b 5521 0f3c a846 743b 2070 94bc
000000c0: b262 f1bb 337f 1bb9 bb32 973b b743 47bc
000000d0: 1ded cbbc 6db0 b93b c82a 3abb 0c06 2abc
000000e0: 1ecb db3b d0f0 a23a f9bf 923b 60fc 773a
000000f0: b258 6b3c eb9c 90bc d91e efba 82e2 a5bc
00000100: 3d1e f4bc 5c7f 6abc 2ac4 273c d4ba 323c
00000110: 219f 913c aeea bebb f33c 27bc 5c19 8a3c
00000120: 5772 43bb fa53 fbbc 6ac5 b13a 0efe 24bb
00000130: 1310 64bc cd75 f43b 34a8 6c3b cb2a 0fbc
00000140: a866 c83b 8dc6 3d39 fdf6 c73b dec7 f7bb
00000150: e1be 8bbb c9fe e6ba 8667 623b 970b 7a3c
00000160: 3644 01bc a75e 77bb 266e 1ebb 56e9 dc3b
00000170: b226 ac3b 63a2 ddb9 6776 28bb 910e ecbb
00000180: 4766 903b 726d 94bb f3f3 abbc 6d7f b83b
00000190: c510 d9bb e354 07bb c530 633c 0045 ea3b
000001a0: 72b5 933b 5765 4e3c 4be5 6ebc 7f9e 5f3c
000001b0: 9574 203b e25b a6bc 92f2 2b3c d9cd 2dbc
000001c0: af70 173c 782d c1bc 17a1 a03c 32a4 24bb
000001d0: 616c ec3b 9b86 003c 8c0d e73b 0057 893c
000001e0: a0a9 acbb b36b 62bc 0a78 183c 7350 473c
000001f0: dcf4 b43b 6a70 3a3b d22e a63b 034b 5e3c
0.003116522 -0.0075701773 -0.013686371 -0.0034706919 -0.010609487 -0.008761603 0.0062273038 0.009124002
0.0036741325 0.0020433695 0.0012246652 -0.018833838 0.010908524 0.0033934906 -0.031325467 0.005389528
0.012319359 -0.008073953 -0.00090460153 -0.0032202015 0.0025495922 0.009887704 -0.0010023752 0.0078068334
-0.016908864 0.01832358 0.0076265293 0.007615257 -0.0043733465 0.008810231 -0.003725088 -0.007211529
0.002815053 0.01148485 0.013500903 0.010347612 -0.0036675262 -0.002529518 0.0056953304 0.009310531
0.00654413 -0.0057042055 0.018331401 -0.0091034 0.0052923365 0.008735974 0.003727356 -0.018119872
-0.0073665017 -0.00014829337 0.004614202 -0.012162141 -0.024893338 0.0056667835 -0.0028406847 -0.010377418
0.006707563 0.0012431387 0.0044784513 0.0009459909 0.014364408 -0.01765295 -0.0018243446 -0.020249609
-0.029799575 -0.014312591 0.01023964 0.010908801 0.017776074 -0.005826316 -0.0102074025 0.016857795
-0.002982279 -0.030679692 0.0013562862 -0.0025175842 -0.013919848 0.007460332 0.0036111 -0.00873823
0.006115753 0.0001809841 0.0061024413 -0.007561668 -0.004264698 -0.0017623539 0.0034546568 0.015261552
-0.007889798 -0.0037745626 -0.002417454 0.006741683 0.0052536363 -0.00042273392 -0.002570534 -0.007203885
0.0044067237 -0.0045296485 -0.020990347 0.0056304247 -0.0066243135 -0.0020649962 0.013866608 0.0071493387
0.004507714 0.0125974035 -0.014581035 0.013648628 0.002448355 -0.020307485 0.010494845 -0.01060816
0.009243174 -0.023581252 0.019608064 -0.0025122282 0.007215068 0.007844592 0.0070511755 0.016765118
-0.0052692443 -0.013819623 0.009305963 0.012165177 0.0055223536 0.0028448352 0.0050714994 0.013567689
